Models/model_pisp.tflite (tflite, 47624 bytes, 9 tensors)

arith.constant12 f4 [10]
2800.0 3333.3333 3866.6667 4400.0 4933.3335 5466.6665 6000.0 6533.3335
7066.6665 7600.0
00000000: 0000 2f45 5555 5045 abaa 7145 0080 8945
00000010: ab2a 9a45 55d5 aa45 0080 bb45 ab2a cc45
00000020: 55d5 dc45 0080 ed45

arith.constant15 f4 [16, 3, 3, 3]
-0.34427246 0.23725587 0.2426431 -0.41691124 0.24873029 0.26260322 -0.34183362 -0.010713562
0.13401191 0.06004257 0.23125768 -0.20805895 0.0013191123 0.11699242 -0.2148007 -0.23760028
0.21229531 -0.12863837 -0.03777134 3.8186095e-05 -0.2962739 -0.25775743 0.2204309 -0.18818107
-0.058188118 0.25891906 -0.12703222 -0.33035192 -0.04830123 0.39676043 -0.22884388 0.010115045
0.45109814 -0.24141702 0.10681841 0.44700268 -0.28879702 0.11690269 0.32603893 -0.26177233
-0.033599652 0.21732858 -0.32693002 -0.11187398 0.42413086 -0.3796861 -0.16188917 0.48552695
-0.42136547 -0.0071261604 0.5294314 -0.123015605 -0.0569819 0.2325126 -0.11141774 -0.24662991
-0.5398677 0.022694152 0.04699478 -0.43581972 -0.008604218 0.097408175 -0.35827148 -0.04832182
0.07430346 -0.6833078 -0.04049171 -0.11856334 -0.48965842 -0.25682807 -0.14032729 -0.5298786
-0.010404548 -0.02042102 -0.45791772 0.11299626 -0.034054056 -0.23760918 0.046495214 -0.14974064
-0.054263525 -0.18460922 0.17953943 0.14866838 -0.73775405 0.17842847 0.56436807 -0.49088055
-0.025553351 0.502509 -0.35492548 0.040232133 0.23303853 -0.8708135 -0.092447035 0.53088224
-0.5807845 0.010763136 0.33945513 -0.33025903 0.001897207 0.123244695 -0.26281983 -0.05046004
0.25696325 -0.26095638 -0.12714782 0.2270903 0.5071628 -0.12298308 0.028125321 0.37893543
-0.05947999 0.028124517 0.165058 0.019316962 0.31595603 0.051544826 0.046744615 -0.5481541
-0.20227443 0.11407604 -0.8574572 -0.029522652 0.0691026 -0.097345635 -0.6654528 -0.023852138
-0.61259174 -0.99453616 -0.15453896 -1.0795676 -0.13476676 0.11328403 -0.38261032 0.26217616
-0.20502716 -0.32217437 0.2882313 -0.11616074 -0.53730047 0.27691725 -0.13006051 -0.7718453
0.2555127 -0.01741786 -0.27225763 -0.010200327 -0.13357234 0.0013718978 0.19516431 -0.23246941
-0.2573442 0.13790841 0.02277101 -0.15506004 0.21193637 -0.0035846846 0.21673574 0.2579724
-0.20848747 0.30997115 -0.14726284 0.11512768 -0.4762856 -0.1031249 -0.120158195 -0.7874269
0.15222791 -0.11269896 -0.49884957 0.29824078 0.16600224 -0.62310255 0.07790057 -0.006136103
-0.7658121 0.0044773696 0.16396998 -0.4978933 0.3424966 0.10126597 -0.6121851 0.20323266
0.0047417837 -1.0363102 0.29776242 -0.08659697 -0.8843372 0.23808667 0.08337486 0.21964052
-0.14814672 0.019733135 0.019474637 -0.41998616 0.0577187 -0.6112996 0.3177048 0.08543102
0.6143131 -0.17466843 0.056036662 0.19340172 -0.39350292 0.18873593 -0.63164246 0.096865244
-0.07454432 0.2525746 0.027459498 -0.0019095968 0.10719327 -0.46574846 -0.047307845 -0.07822087
-0.08857728 -0.2125021 -1.8904274 -0.09278616 -0.26041156 -2.2607174 0.11013432 -0.081774764
-2.3544 0.21692513 -0.25825506 -3.8577464 0.12412604 0.067591414 -4.183372 0.18672068
-0.040439293 -3.9365802 0.2079084 -0.22486949 -3.1892905 0.16330676 -0.2266267 -3.3481727
0.30473965 -0.144522 -2.9148712 0.2428788 -0.1469565 -1.9630755 0.14595908 -0.0973373
-2.597969 0.029332764 0.1247769 -1.3727946 -0.14191368 -0.072901934 -2.7659853 0.09746436
00000000: 7b44 b0be 34f3 723e 6f77 783e 6475 d5be
00000010: 27b3 7e3e ee73 863e d104 afbe f087 2fbc
00000020: 6b3a 093e 33ef 753d d0ce 6c3e 680d 55be
00000030: 10e6 ac3a b999 ef3d b7f4 5bbe 7d4d 73be
00000040: f163 593e c7b9 03be 1fb6 1abd 022a 2038
00000050: 36b1 97be c8f8 83be a3b8 613e 8ab2 40be
00000060: aa56 6ebd 0a91 843e bc14 02be e323 a9be
00000070: 83d7 45bd 2f24 cb3e 0d56 6abe 93b9 253c
00000080: 56f6 e63e 0636 77be 9cc3 da3d 89dd e43e
00000090: 34dd 93be ad6a ef3d 93ee a63e 0607 86be
000000a0: ca9f 09bd 628b 5e3e 5f63 a7be 2f1e e5bd
000000b0: ae27 d93e 3766 c2be 46c6 25be fd96 f83e
000000c0: 37bd d7be 9182 e9bb d188 073f 9bef fbbd
000000d0: da65 69bd c817 6e3e fc2e e4bd 8d8c 7cbe
000000e0: c534 0abf 16e9 b93c 997d 403d c323 dfbe
000000f0: b5f8 0cbc f07d c73d 5c6f b7be 1aed 45bd
00000100: 6a2c 983d 43ed 2ebf a3da 25bd 56d1 f2bd
00000110: 82b4 fabe f87e 83be f5b1 0fbe 20a6 07bf
00000120: d677 2abc fc49 a7bc 3174 eabe 956a e73d
00000130: 447c 0bbd d24f 73be c471 3e3d 9c55 19be
00000140: 6e43 5ebd 330a 3dbe 2fd9 373e 863c 183e
00000150: 73dd 3cbf f4b5 363e 6d7a 103f b254 fbbe
00000160: 4355 d1bc 6ea4 003f cbb8 b5be 73ca 243d
00000170: a7a1 6e3e a2ed 5ebf df54 bdbd e6e7 073f
00000180: 4bae 14bf dd57 303c 10cd ad3e b617 a9be
00000190: b4ab f83a b767 fc3d 5290 86be 30af 4ebd
000001a0: b090 833e 139c 85be 0a33 02be 5c8a 683e
000001b0: 6cd5 013f 8ede fbbd 1367 e63c d303 c23e
000001c0: 4aa1 73bd 6365 e63c f704 293e 9b3e 9e3c
000001d0: fdc4 a13e ab20 533d 4877 3f3d d453 0cbf
000001e0: 0721 4fbe b3a0 e93d 5182 5bbf 7dd9 f1bc
000001f0: aa85 8d3d 265d c7bd 1d5b 2abf 8f65 c3bc
00000200: d0d2 1cbf ec99 7ebf 763f 1ebe 452f 8abf
00000210: 4c00 0abe 7501 e83d 80e5 c3be f43b 863e
00000220: a4f2 51be 0af4 a4be 0e93 933e afe5 edbd
00000230: 868c 09bf 19c8 8d3e 952e 05be a797 45bf
00000240: 90d2 823e e6af 8ebc 5a65 8bbe 461f 27bc
00000250: 30c7 08be 40d1 b33a 27d9 473e 760c 6ebe
00000260: 9ec2 83be dd37 0d3e 458a ba3c 0fc8 1ebe
00000270: d905 593e 07ed 6abb f9ef 5d3e f514 843e
00000280: bd7d 55be 8ab4 9e3e 12cc 16be 10c8 eb3d
00000290: b5db f3be 2633 d3bd 8015 f6bd cf94 49bf
000002a0: a2e1 1b3e b6ce e6bd 3669 ffbe 04b3 983e
000002b0: 7efc 293e a683 1fbf 568a 9f3d 5d11 c9bb
000002c0: 430c 44bf e6b6 923b bfe7 273e dfeb febe
000002d0: b75b af3e 8864 cf3d 2ab8 1cbf 391c 503e
000002e0: f760 9b3b d0a5 84bf 5174 983e c159 b1bd
000002f0: ec63 62bf fecc 733e 70c0 aa3d 72e9 603e
00000300: c6b3 17be 62a7 a13c 4689 9f3c 6d08 d7be
00000310: 726a 6c3d 217e 1cbf 34aa a23e 75f6 ae3d
00000320: a043 1d3f 48dc 32be b386 653d 1a0b 463e
00000330: 3779 c9be fe43 413e 52b3 21bf 4961 c63d
00000340: b1aa 98bd 7551 813e bef2 e03c 704b faba
00000350: 2588 db3d 9576 eebe dfc5 41bd 4332 a0bd
00000360: 0168 b5bd 279a 59be 86f9 f1bf ac06 bebd
00000370: aa54 85be 98af 10c0 1a8e e13d 8779 a7bd
00000380: 7dae 16c0 9f21 5e3e 023a 84be 51e5 76c0
00000390: cb35 fe3d 5e6d 8a3d 2fde 85c0 b533 3f3e
000003a0: aca3 25bd eef0 7bc0 f1e5 543e 3044 66be
000003b0: 561d 4cc0 e339 273e d410 68be 7648 56c0
000003c0: d606 9c3e 93fd 13be 408d 3ac0 38b5 783e
000003d0: c47b 16be 0f46 fbbf 4c76 153e c758 c7bd
000003e0: 2045 26c0 444b f03c 088b ff3d bcb7 afbf
000003f0: d251 11be 9c4d 95bd e705 31c0 659b c73d

arith.constant16 f4 [64]
-0.26108965 -0.20517741 -0.25816095 -0.36720964 -0.06817739 0.0215789 -0.08125512 -0.36079374
-0.4926277 0.030380039 -0.23075964 -0.061513033 -0.09102191 -0.074376635 -0.115209155 0.15251411
-0.06747535 -0.1452042 0.03132806 -0.15008168 -0.35183865 0.21195637 -0.13606781 -0.088695765
-0.0789975 -0.11088819 -0.12998581 0.24476556 0.2510524 -0.44507134 -0.14665966 -0.32061896
-0.3848463 0.08194117 -0.03305979 -0.1424643 0.0672931 -0.33438173 -0.04920446 -0.10808281
0.038728595 -0.10605211 -0.2704685 -0.19297181 -0.16935444 -0.04003005 -0.07515132 -0.21586601
-0.24141221 -0.36742932 -0.099068485 -0.08654701 -0.23020475 -0.31800935 -0.09507757 -0.111147165
0.01647388 -0.22046496 -0.101500794 0.021405254 -0.101481274 -0.19023015 0.377694 -0.08687903
00000000: 8bad 85be 071a 52be ac2d 84be e702 bcbe
00000010: 96a0 8bbd 3cc6 b03c 1669 a6bd f5b9 b8be
00000020: b339 fcbe 8fdf f83c 414c 6cbe 17f5 7bbd
00000030: b269 babd c752 98bd c7f2 ebbd a92c 1c3e
00000040: 8430 8abd 69b0 14be da51 003d 03af 19be
00000050: 3224 b4be 170b 593e 5c55 0bbe 20a6 b5bd
00000060: 71c9 a1bd 5919 e3bd 001b 05be d3a3 7a3e
00000070: f189 803e 64e0 e3be f32d 16be 2b28 a4be
00000080: 930a c5be c6d0 a73d b469 07bd 29e2 11be
00000090: f7d0 893d 1534 abbe 9e8a 49bd 855a ddbd
000000a0: e0a1 1e3d d931 d9bd d97a 8abe 679a 45be
000000b0: 406b 2dbe 8df6 23bd efe8 99bd fb0b 5dbe
000000c0: c334 77be b21f bcbe 6be4 cabd 8f3f b1bd
000000d0: cbba 6bbe 1fd2 a2be 07b8 c2bd 20a1 e3bd
000000e0: 3bf4 863c 91c1 61be a6df cfbd 125a af3c
000000f0: 6ad5 cfbd b1cb 42be 1c61 c13e a2ed b1bd

arith.constant17 f4 [32]
-0.041838124 0.11800207 0.35290807 -0.13670139 -0.5184027 0.008174746 -0.42057067 0.10598129
-0.08770879 -0.13398978 -0.06965052 -0.15702192 -0.15598981 -0.16329415 -0.28680304 -0.12541613
-0.11099426 -0.08570321 -0.07703294 -0.10493519 -0.0346819 0.08238739 -0.25792903 0.094851315
-0.2868422 -0.26525018 -0.09176155 -0.019553706 -0.029567745 -0.28703266 -0.09963028 0.18116105
00000000: 745e 2bbd 12ab f13d 5eb0 b43e 73fb 0bbe
00000010: 0ab6 04bf 5fef 053c 0a55 d7be b80c d93d
00000020: aba0 b3bd 9e34 09be efa4 8ebd 5bca 20be
00000030: cbbb 1fbe 9536 27be d9d7 92be 166d 00be
00000040: f550 e3bd 2a85 afbd 72c3 9dbd 43e8 d6bd
00000050: 9c0e 0ebd b8ba a83d 460f 84be 6841 c23d
00000060: fbdc 92be dfce 87be 7bed bbbd 182f a0bc
00000070: 0e38 f2bc f2f5 92be f60a ccbd 4882 393e

arith.constant18 f4 [16]
-0.13446766 0.049010247 -0.056786556 0.17552991 0.19182001 -0.24974467 -0.20024098 -0.39280748
0.18223847 -0.1924061 -0.054851934 -0.3578337 -0.38410366 0.20448776 -0.5580822 -0.34718657
00000000: e4b1 09be f8be 483d 0599 68bd 1dbe 333e
00000010: 776c 443e 11bd 7fbe f90b 4dbe 101e c9be
00000020: b99c 3a3e 1b06 45be 6cac 60bd fb35 b7be
00000030: 3ca9 c4be 3d65 513e 7ade 0ebf 70c2 b1be

arith.constant19 f4 [10]
0.18531236 -0.20631388 0.13241477 0.5372878 0.12549119 0.2343052 -0.04827705 -0.09579292
-0.08825424 -0.59914887
00000000: 86c2 3d3e f243 53be bd97 073e b18b 093f
00000010: c380 003e b4ed 6f3e 28be 45bd 142f c4bd
00000020: a4be b4bd d261 19bf

tfl.pseudo_qconst i1 [64, 3, 3, 32]
-16 3 -2 -74 26 12 18 -13
-7 -4 -57 -85 -8 -43 25 -1
4 -56 -25 -3 -11 5 -5 -33
12 -2 -3 4 -58 -7 -67 7
-9 -10 -5 -28 31 8 -9 12
31 -12 -37 -21 -3 -79 21 0
20 -60 -15 2 18 -3 12 -114
-5 -18 -4 -3 -70 13 -39 22
-9 3 -3 -38 16 2 -9 -44
3 -11 -52 -18 12 -15 13 -10
7 -48 -26 2 4 -10 13 -92
10 4 6 6 -114 3 -54 5
1 16 -10 -89 -4 0 3 -13
-35 14 7 -94 -3 24 2 -6
-3 -127 -18 1 -1 -20 8 -48
4 -12 2 -3 -64 8 -59 -28
1 -10 10 13 -14 16 -7 14
0 23 49 27 5 11 -4 -5
24 -117 28 -3 27 -1 3 -9
-9 -17 3 -9 -42 28 -32 -18
2 2 11 -59 -10 -33 -1 -29
-13 10 8 -33 21 14 -5 -6
9 -100 -27 0 11 -11 3 -119
14 10 -4 6 -90 -2 -14 -21
14 11 -1 -67 -22 -5 -15 12
-19 17 7 -109 -22 -11 -9 -6
-14 -69 -19 -6 4 -17 -33 -34
1 19 -2 21 -82 -15 -64 -27
-3 -1 15 -45 -25 16 -11 26
-20 9 28 -54 -7 -43 -15 -4
9 -93 -14 0 17 3 -32 -7
-12 16 -4 2 -50 8 -70 6
00000000: f003 feb6 1a0c 12f3 f9fc c7ab f8d5 19ff
00000010: 04c8 e7fd f505 fbdf 0cfe fd04 c6f9 bd07
00000020: f7f6 fbe4 1f08 f70c 1ff4 dbeb fdb1 1500
00000030: 14c4 f102 12fd 0c8e fbee fcfd ba0d d916
00000040: f703 fdda 1002 f7d4 03f5 ccee 0cf1 0df6
00000050: 07d0 e602 04f6 0da4 0a04 0606 8e03 ca05
00000060: 0110 f6a7 fc00 03f3 dd0e 07a2 fd18 02fa
00000070: fd81 ee01 ffec 08d0 04f4 02fd c008 c5e4
00000080: 01f6 0a0d f210 f90e 0017 311b 050b fcfb
00000090: 188b 1cfd 1bff 03f7 f7ef 03f7 d61c e0ee
000000a0: 0202 0bc5 f6df ffe3 f30a 08df 150e fbfa
000000b0: 099c e500 0bf5 0389 0e0a fc06 a6fe f2eb
000000c0: 0e0b ffbd eafb f10c ed11 0793 eaf5 f7fa
000000d0: f2bb edfa 04ef dfde 0113 fe15 aef1 c0e5
000000e0: fdff 0fd3 e710 f51a ec09 1cca f9d5 f1fc
000000f0: 09a3 f200 1103 e0f9 f410 fc02 ce08 ba06

tfl.pseudo_qconst1 i1 [32, 3, 3, 16]
20 20 2 -35 29 3 -18 20
7 -2 4 23 15 12 -6 -6
11 18 -4 -22 69 3 -19 11
-1 -19 -9 1 32 -8 1 -37
9 2 -9 17 69 16 -11 -24
16 -8 0 5 28 -6 -40 -24
-3 -9 12 -47 25 -19 2 -11
29 -7 -7 -12 -9 -17 -4 -61
-4 1 -17 -45 18 -19 3 -29
7 5 -9 -16 -2 5 -10 -47
7 -11 0 -3 12 -14 10 -26
10 -15 -5 18 11 16 28 -26
3 -104 -5 -47 -9 -13 14 -24
-1 -7 9 -17 -34 -19 -12 -41
-1 -127 -10 -92 15 11 5 -50
11 -4 -2 -11 -36 8 -22 2
-20 -50 -13 -56 -3 -2 -19 -11
4 -5 5 22 -17 -12 10 -5
3 20 -5 4 -10 -11 -39 -24
-33 -49 -9 27 22 9 4 -19
15 7 2 -3 -12 -19 -55 -2
-54 -63 -6 22 27 8 -6 2
9 6 -4 -9 -26 -8 -54 28
5 -40 0 13 53 5 -9 -36
2 7 -11 -29 -10 6 -66 -25
8 -25 11 -4 12 5 5 -7
-1 -21 12 -41 -12 27 -45 -14
20 -8 -8 5 -3 -25 14 13
12 -5 -6 10 -30 -8 -24 15
38 8 7 23 27 5 27 -2
-11 10 3 -47 6 3 -79 -22
-31 -127 5 -31 35 14 3 -8
00000000: 1414 02dd 1d03 ee14 07fe 0417 0f0c fafa
00000010: 0b12 fcea 4503 ed0b ffed f701 20f8 01db
00000020: 0902 f711 4510 f5e8 10f8 0005 1cfa d8e8
00000030: fdf7 0cd1 19ed 02f5 1df9 f9f4 f7ef fcc3
00000040: fc01 efd3 12ed 03e3 0705 f7f0 fe05 f6d1
00000050: 07f5 00fd 0cf2 0ae6 0af1 fb12 0b10 1ce6
00000060: 0398 fbd1 f7f3 0ee8 fff9 09ef deed f4d7
00000070: ff81 f6a4 0f0b 05ce 0bfc fef5 dc08 ea02
00000080: ecce f3c8 fdfe edf5 04fb 0516 eff4 0afb
00000090: 0314 fb04 f6f5 d9e8 dfcf f71b 1609 04ed
000000a0: 0f07 02fd f4ed c9fe cac1 fa16 1b08 fa02
000000b0: 0906 fcf7 e6f8 ca1c 05d8 000d 3505 f7dc
000000c0: 0207 f5e3 f606 bee7 08e7 0bfc 0c05 05f9
000000d0: ffeb 0cd7 f41b d3f2 14f8 f805 fde7 0e0d
000000e0: 0cfb fa0a e2f8 e80f 2608 0717 1b05 1bfe
000000f0: f50a 03d1 0603 b1ea e181 05e1 230e 03f8

tfl.pseudo_qconst2 i1 [10, 1024]
-24 3 -5 8 10 -45 -1 9
13 -9 -45 7 0 2 2 15
-6 13 8 -13 0 10 9 -5
3 -5 -2 11 5 5 -5 23
16 -24 -20 -13 -8 -5 6 0
0 9 0 15 -13 14 7 9
59 -70 11 -29 -5 21 -2 16
19 -36 5 16 -6 -50 -36 5
18 12 6 9 -4 73 -8 26
22 -7 -78 -1 4 -4 5 11
-3 -6 2 0 -62 5 -6 5
5 1 6 17 53 8 20 15
17 -26 -16 -46 -22 -40 10 -2
3 8 15 33 13 15 3 22
27 -45 -13 -118 -15 12 11 0
4 -55 8 4 4 -71 16 3
28 20 -2 28 4 87 -4 4
8 -6 -63 2 5 -6 -6 12
11 -18 -18 -20 3 6 -11 8
8 -5 -4 22 47 29 -16 23
8 -53 -30 -23 -35 -42 26 4
6 23 16 9 -3 18 2 3
-78 -41 -14 -93 22 3 0 11
-1 -53 -3 -8 -1 -100 11 -6
6 1 14 2 -5 7 -7 12
18 -1 -44 3 -7 -11 -2 14
9 28 8 -4 -29 13 9 1
-5 4 5 21 29 -24 -48 20
16 -7 -23 28 -3 41 20 17
13 30 -3 40 27 18 0 18
-35 -30 -6 -40 30 9 -1 -12
0 -36 9 -48 -2 -74 -8 -6
00000000: e803 fb08 0ad3 ff09 0df7 d307 0002 020f
00000010: fa0d 08f3 000a 09fb 03fb fe0b 0505 fb17
00000020: 10e8 ecf3 f8fb 0600 0009 000f f30e 0709
00000030: 3bba 0be3 fb15 fe10 13dc 0510 face dc05
00000040: 120c 0609 fc49 f81a 16f9 b2ff 04fc 050b
00000050: fdfa 0200 c205 fa05 0501 0611 3508 140f
00000060: 11e6 f0d2 ead8 0afe 0308 0f21 0d0f 0316
00000070: 1bd3 f38a f10c 0b00 04c9 0804 04b9 1003
00000080: 1c14 fe1c 0457 fc04 08fa c102 05fa fa0c
00000090: 0bee eeec 0306 f508 08fb fc16 2f1d f017
000000a0: 08cb e2e9 ddd6 1a04 0617 1009 fd12 0203
000000b0: b2d7 f2a3 1603 000b ffcb fdf8 ff9c 0bfa
000000c0: 0601 0e02 fb07 f90c 12ff d403 f9f5 fe0e
000000d0: 091c 08fc e30d 0901 fb04 0515 1de8 d014
000000e0: 10f9 e91c fd29 1411 0d1e fd28 1b12 0012
000000f0: dde2 fad8 1e09 fff4 00dc 09d0 feb6 f8fa
