Models/model_vc4.tflite (tflite, 42976 bytes, 7 tensors)

arith.constant12 f4 [10]
0	0x452f0000	2800.0
1	0x45505555	3333.3333
2	0x4571aaab	3866.6667
3	0x45898000	4400.0
4	0x459a2aab	4933.3335
5	0x45aad555	5466.6665
6	0x45bb8000	6000.0
7	0x45cc2aab	6533.3335
8	0x45dcd555	7066.6665
9	0x45ed8000	7600.0

arith.constant15 f4 [32, 3, 3, 3]
0	0xbca5f274	-0.020257212
1	0xbb107574	-0.0022042664
2	0x3f3155ab	0.69271344
3	0xbc69a8b3	-0.014261412
4	0x3d40c101	0.047059063
5	0x3ed23208	0.41053796
6	0xbe3976b1	-0.18111683
7	0xbd913689	-0.0709048
8	0x3f24559d	0.64193135
9	0x3df38215	0.118900456
10	0xbe1de215	-0.15418275
11	0x3f3dbfc7	0.74120754
12	0x3df63b4c	0.12023029
13	0x3cf0f3c4	0.029413112
14	0xbd5fba86	-0.054621242
15	0x3e503025	0.20330866
16	0xbdcfd101	-0.10147286
17	0x3f3915f0	0.722991
18	0xbd9d7dbd	-0.07689998
19	0x3bc80d64	0.006105112
20	0x3eee3510	0.46524858
21	0x3d46293c	0.048379168
22	0xbd19c6c9	-0.037543092
23	0x3f28fdf1	0.66012484
24	0xbd82dbf1	-0.06389607
25	0xbd5b1013	-0.053482126
26	0x3ed7c3ca	0.42141563
27	0xbeff4746	-0.49859065
28	0xbdc1034a	-0.094244555
29	0x3f0c1841	0.5472451
30	0xbf1a248c	-0.60212016
31	0x3dafe56d	0.08588681
32	0x3f3016ac	0.68784595
33	0xbe7f6fbe	-0.2494497
34	0xbe26171b	-0.16219752
35	0x3e4b8e7d	0.19878574
36	0xbedea40b	-0.4348453
37	0xbe061ac4	-0.13096148
38	0x3eb193a8	0.34682965
39	0xbf0a52e3	-0.54032725
40	0x3d91c5d1	0.071178086
41	0x3f21fa61	0.6327267
42	0xbee726f5	-0.4514691
43	0x3d898216	0.06714265
44	0x3e88240e	0.26590008
45	0xbee3d3bd	-0.4449748
46	0xbd7bb421	-0.06145108
47	0x3f328f62	0.69750035
48	0xbef3044a	-0.4746421
49	0xbdbcd57b	-0.09220406
50	0x3f198c98	0.59980154
51	0xbebb7f92	-0.36620766
52	0xbd5fe742	-0.054663904
53	0x3f0a9cfb	0.54145783
54	0xbf05ec86	-0.5231403
55	0xbe0602cc	-0.13087004
56	0x3e861916	0.26191014
57	0xbe8b8211	-0.2724767
58	0xbde761f4	-0.1129798
59	0x3f80da0f	1.0066546
60	0xbe9e959c	-0.30973518
61	0x3db093be	0.086219296
62	0x3e2f1f0f	0.17101692
63	0xbf018ce2	-0.50605595
64	0xbd675455	-0.05647691
65	0xbe782058	-0.24231088
66	0xbf946f25	-1.1596419
67	0xbd3dd665	-0.04634704
68	0xbf8a8cf4	-1.0824265
69	0xbf056eb9	-0.52122074
70	0x3de853be	0.113440976
71	0xbec92b00	-0.3929062
72	0x3ea063d5	0.31326166
73	0xbcc8f205	-0.024529466
74	0xbf5d1dbe	-0.8637351
75	0x3f78503b	0.9699742
76	0x3dd96c04	0.106163055
77	0xbd021712	-0.031760283
78	0x3f58e49f	0.8472385
79	0x3d62c2f1	0.05536169
80	0xbf3163a8	-0.6929269
81	0x3f155d1a	0.58345187
82	0xbdbc2581	-0.09186841
83	0x3ef0a287	0.46999
84	0x3ecdb01f	0.40173432
85	0xbde13715	-0.10996834
86	0x3e3c8867	0.18411408
87	0xbe70c1a8	-0.23511374
88	0x3d419b92	0.047267504
89	0xbde4b51c	-0.11167356
90	0x3f341abb	0.7035329
91	0x3a7573f2	0.00093632855
92	0x3e4bede4	0.19914967
93	0x3e4a9a43	0.19785409
94	0xbdd44502	-0.10364725
95	0x3e167d40	0.14696217
96	0xbeecba7d	-0.4623603
97	0x3dab431f	0.08362412
98	0xbf0b42e9	-0.5439897
99	0x3ebb2653	0.36552677
100	0xbd330ac1	-0.043711428
101	0x3e297200	0.16547394
102	0xbe0905b3	-0.1338108
103	0xbe301200	-0.17194366
104	0xbe3ce360	-0.18446112
105	0xbf934002	-1.1503909
106	0x3d8d4147	0.06897216
107	0xbe523485	-0.20527847
108	0x3c3f659e	0.011681942
109	0xbc7a4b4e	-0.015276743
110	0xbe3a330a	-0.18183532
111	0xbdb34f7c	-0.08755395
112	0xbc4ae607	-0.012383944
113	0xbe104615	-0.14089234
114	0xbd87f56d	-0.06638608
115	0xbe5103c6	-0.20411596
116	0xbe821621	-0.25407508
117	0x3a86701d	0.0010256801
118	0xbe5b3048	-0.21405137
119	0xbea62dab	-0.32456717
120	0xbd5127dd	-0.051063407
121	0x3d24b17d	0.04020833
122	0xbe98530c	-0.2975086
123	0x3d9cfc0a	0.0766526
124	0xbd8666a7	-0.06562548
125	0xbeaa21cd	-0.33228913
126	0x3cb8e8fa	0.02257203
127	0xbe393def	-0.18090032
128	0xbe819b4d	-0.25313798
129	0x3dd32ff6	0.10311882
130	0xbce4bb6a	-0.027921397
131	0xbe75fde5	-0.24022634
132	0xbc8a42e6	-0.016877603
133	0xbe0bfa06	-0.13669595
134	0xbe193fb6	-0.1496571
135	0x3e8656e5	0.2623817
136	0x3e2213f1	0.1582792
137	0x3e3d81b8	0.18506515
138	0x3ec2fd17	0.38083717
139	0x3e2dac2d	0.16960211
140	0x3ebb11f1	0.36537126
141	0x3ed877ae	0.42278808
142	0x3d7fac11	0.062419955
143	0x3e2e553e	0.17024705
144	0xbe17ba9f	-0.14817284
145	0x3deec037	0.11657756
146	0xbf0f05ea	-0.558684
147	0x3edd7047	0.43249723
148	0xbd5fc566	-0.054631613
149	0xbf01bae5	-0.50675803
150	0x3eddd281	0.43324664
151	0x3be20521	0.006897584
152	0x3e7d2aaf	0.24723314
153	0xbf346a79	-0.70474964
154	0xba66c57c	-0.0008803231
155	0xbf794b35	-0.9738038
156	0xbd8d5cc4	-0.06902459
157	0x3de919df	0.11381888
158	0xbf841ef6	-1.0321949
159	0x3e14ff96	0.14550623
160	0x3dd7a5bb	0.105296575
161	0x3eb5cd53	0.35508212
162	0xbeb3bf8b	-0.35107073
163	0xbc9dbf89	-0.01925637
164	0xbf181b92	-0.5941707
165	0xbdc7fe45	-0.09765295
166	0xbdfeab8f	-0.12435066
167	0xbfe9ac72	-1.8255751
168	0x3ef68c38	0.48153853
169	0xbdb279ac	-0.08714613
170	0xbfad50ec	-1.354032
171	0xbf8a5a42	-1.0808794
172	0xbe3c9455	-0.18415959
173	0x3e6327f9	0.22183217
174	0x3e0ca43d	0.13734527
175	0xbe3a2de2	-0.18181565
176	0xbfc9c95c	-1.5764575
177	0x3f35a394	0.70952725
178	0xbd4a17bc	-0.04933904
179	0xc02a56eb	-2.661555
180	0xbf838a03	-1.0276493
181	0xbe88351b	-0.26603016
182	0xbe76eec7	-0.24114524
183	0x3e8741f9	0.2641752
184	0xbdf3fce5	-0.1191347
185	0xbfe130ba	-1.7592995
186	0x3f237b52	0.63860047
187	0xbe1b4efc	-0.15166849
188	0xbfe4185a	-1.7819932
189	0x3eda4c38	0.42636275
190	0xbeba9674	-0.36442912
191	0xbf1dc434	-0.6162751
192	0x3ec8fa4f	0.3925347
193	0xbea5470f	-0.32280776
194	0x3ec52bee	0.38510078
195	0x3e6d0ba2	0.23148969
196	0xbe87338d	-0.26406518
197	0x3f9f5ee1	1.245083
198	0x3ee4b229	0.44667175
199	0xbe892efa	-0.26793653
200	0xbf2bfd1a	-0.6718308
201	0x3e8f30e2	0.27966982
202	0xbeadea3d	-0.33967772
203	0xbe6a3b3b	-0.22874157
204	0x3e65d990	0.22446275
205	0xbe4daed5	-0.20086224
206	0x3f94759a	1.1598389
207	0x3ee4a474	0.44656718
208	0xbe91a49e	-0.28445905
209	0xbdedf5d4	-0.116191536
210	0x3ec74b40	0.389246
211	0xbebd2f79	-0.3695028
212	0xbe69d243	-0.22834115
213	0x3e0387d1	0.12844779
214	0xbe539ce6	-0.20665321
215	0x3f149097	0.58033127
216	0x3eda7455	0.4266688
217	0x3e6f1af0	0.2335012
218	0xbf1849e3	-0.5948774
219	0x3eff4ea6	0.49864691
220	0x3e069ba6	0.13145313
221	0xbf3804a8	-0.71882105
222	0x3ef943ec	0.48684633
223	0x3e387c6d	0.18016215
224	0xbf12be34	-0.57321477
225	0xbe42e30e	-0.19031927
226	0x3dfa589d	0.12223933
227	0x3e3f7318	0.18696249
228	0xbdf3737c	-0.11887261
229	0xbb69da9e	-0.0035683285
230	0xbdb16831	-0.08662451
231	0x3eb6215d	0.3557233
232	0x3d1d1df8	0.03835866
233	0xbec794ea	-0.389808
234	0xbf44fef9	-0.7695156
235	0xbbaa1380	-0.005190313
236	0x3f0ed39a	0.5579163
237	0xbf358adc	-0.7091501
238	0x3e7e8a7a	0.24857512
239	0x3f563aa0	0.83683205
240	0xbd8479d8	-0.06468552
241	0x3e7aeb4b	0.2450382
242	0x3e40b531	0.18819119
243	0xbe3a1a0b	-0.18173997
244	0xbd41aed8	-0.047285885
245	0xbe5f0ac2	-0.21781448
246	0x3dbd029b	0.092290126
247	0x3cd4b6f1	0.02596614
248	0xbe1b3504	-0.15156943
249	0x3df12211	0.11774076
250	0xbd50a235	-0.050935943
251	0xbdafce74	-0.085843
252	0x3e1f4f64	0.15557629
253	0xbe35dc09	-0.17759718
254	0xbd7fc0f1	-0.062439863
255	0x3d3314ab	0.043720882

arith.constant16 f4 [64]
0	0xbe895d11	-0.26828817
1	0xbd75af9b	-0.059981924
2	0xbe29e09f	-0.16589592
3	0xbecec270	-0.4038272
4	0xbecc8d08	-0.39951348
5	0xbd49e9ac	-0.049295112
6	0xbe72b024	-0.23700005
7	0xbe21b5b4	-0.1579197
8	0xbf670ec7	-0.90256923
9	0xbf212c7b	-0.62958497
10	0xbf10b5a4	-0.5652716
11	0xbccd012d	-0.025024975
12	0x3d841754	0.06449762
13	0xbf2c7e5e	-0.6738032
14	0xbdd557ca	-0.10417135
15	0xbd3e2044	-0.04641749
16	0xbf08899f	-0.53334993
17	0xbdb1779c	-0.08665392
18	0xbd6de2bb	-0.058077555
19	0x3dcfa642	0.10139133
20	0x3ef51c1d	0.4787301
21	0xbdc7923f	-0.09744691
22	0xbdc12e24	-0.09432629
23	0xbdbe1fb9	-0.09283394
24	0xbf36a355	-0.71342975
25	0xbe663b58	-0.22483575
26	0xbe95c514	-0.2925192
27	0xbdd2d9f1	-0.10295475
28	0xbd7076df	-0.058707114
29	0x3f16f317	0.58964676
30	0xbaba5e09	-0.0014218698
31	0xbd9b59ba	-0.07585473
32	0xbec5ca9c	-0.3863114
33	0xbea0e353	-0.31423435
34	0xbeabc587	-0.3354914
35	0xbea20e89	-0.31651714
36	0xbd7e39b1	-0.062066738
37	0xbf5788cb	-0.84193105
38	0xbd85fd0e	-0.06542407
39	0x3d3010d4	0.0429848
40	0xbebd30d6	-0.3695132
41	0xbda0d162	-0.078524366
42	0xbd62a62e	-0.055334263
43	0xbd984294	-0.07434574
44	0xbf2cf931	-0.67567736
45	0xbd5871c5	-0.052842874
46	0xbe33ad00	-0.17546463
47	0xbea4d294	-0.32191908
48	0xbe70b718	-0.23507345
49	0x3df8ebfb	0.12154385
50	0xbe12fb58	-0.14353693
51	0x3f35e874	0.7105782
52	0xbe4e193e	-0.20126817
53	0xbdad34c2	-0.084573284
54	0xbda98168	-0.082766354
55	0xbecd63cd	-0.40115204
56	0xbec8a7d0	-0.3919053
57	0xbe8dcbb3	-0.27694473
58	0x3d716713	0.05893619
59	0xbcebbf45	-0.028777728
60	0xbebb3f16	-0.36571568
61	0xbec3d69c	-0.3824967
62	0x3e6c25f1	0.23061348
63	0xbd824ea2	-0.06362654

arith.constant17 f4 [32]
0	0x3d34420c	0.0440083
1	0x3e58c4dc	0.21168846
2	0x3e2fa2ca	0.17151943
3	0x3c1d9899	0.009618902
4	0x3c7d772f	0.01547031
5	0xbf65fafd	-0.898361
6	0x3e8c253e	0.27372164
7	0xbe98bc3d	-0.29831114
8	0xbf5883f0	-0.8457632
9	0xbe585cf2	-0.21129206
10	0xbd577b9e	-0.052608125
11	0xbd2aef2f	-0.04173201
12	0x3e2c589b	0.16830675
13	0x3dc91d6b	0.09820064
14	0x3a3006ea	0.00067148975
15	0xbf53c7df	-0.82726854
16	0xbd80f9bd	-0.06297634
17	0x3d853438	0.065041006
18	0xbbd2cfc4	-0.006433459
19	0xbb1d66c7	-0.002401756
20	0xbca6b785	-0.02035118
21	0xbec8a732	-0.3919006
22	0xbd5ed279	-0.05439994
23	0xbf1c4158	-0.61037207
24	0xbd0fb866	-0.035087965
25	0x3ef238c6	0.4730894
26	0xbc17a5bd	-0.009255824
27	0x3c25d574	0.010121692
28	0xbf4c5bb8	-0.7982745
29	0x3eda2470	0.42605925
30	0x3e9c98bc	0.30585277
31	0x3ecc3410	0.3988347

arith.constant18 f4 [10]
0	0x3ef1aa13	0.4720007
1	0x3dce274b	0.10066088
2	0x3e9f1271	0.31068757
3	0xbea0e433	-0.31424102
4	0xbe1d0ad5	-0.15336163
5	0xbf3a075d	-0.72667485
6	0x3f057995	0.52138644
7	0xbec5ef95	-0.3865935
8	0x3d9dec7b	0.07711121
9	0xbeaf92c8	-0.34291673

tfl.pseudo_qconst i1 [64, 3, 3, 32]
0	0xf6	-10
1	0xe4	-28
2	0x05	5
3	0xee	-18
4	0xfd	-3
5	0xf7	-9
6	0xe1	-31
7	0xd9	-39
8	0x07	7
9	0x02	2
10	0xff	-1
11	0xf1	-15
12	0xfc	-4
13	0xf7	-9
14	0x00	0
15	0xd1	-47
16	0xff	-1
17	0x0a	10
18	0xfe	-2
19	0x06	6
20	0xfe	-2
21	0x0a	10
22	0x00	0
23	0x0c	12
24	0x02	2
25	0x11	17
26	0x00	0
27	0x02	2
28	0x01	1
29	0xfe	-2
30	0xf8	-8
31	0xdc	-36
32	0xf4	-12
33	0xdf	-33
34	0xde	-34
35	0xff	-1
36	0xff	-1
37	0xf0	-16
38	0xef	-17
39	0x00	0
40	0xf8	-8
41	0x00	0
42	0xff	-1
43	0xcb	-53
44	0xe0	-32
45	0xda	-38
46	0x00	0
47	0xfa	-6
48	0x01	1
49	0x08	8
50	0x00	0
51	0xff	-1
52	0xff	-1
53	0x01	1
54	0x02	2
55	0x06	6
56	0xfd	-3
57	0x31	49
58	0x03	3
59	0xf1	-15
60	0x15	21
61	0x00	0
62	0xfc	-4
63	0xfe	-2
64	0xf9	-7
65	0xef	-17
66	0xf7	-9
67	0x06	6
68	0xff	-1
69	0x14	20
70	0xdc	-36
71	0xfe	-2
72	0x18	24
73	0x02	2
74	0xfe	-2
75	0xbe	-66
76	0xd5	-43
77	0xe3	-29
78	0x01	1
79	0x09	9
80	0xff	-1
81	0x04	4
82	0x01	1
83	0x0b	11
84	0xff	-1
85	0x13	19
86	0xfc	-4
87	0x14	20
88	0x03	3
89	0x16	22
90	0xff	-1
91	0xe9	-23
92	0x03	3
93	0x06	6
94	0x02	2
95	0xe7	-25
96	0xeb	-21
97	0xcf	-49
98	0xed	-19
99	0xef	-17
100	0xfd	-3
101	0xfe	-2
102	0xe5	-27
103	0xeb	-21
104	0x0c	12
105	0xfd	-3
106	0x01	1
107	0xfd	-3
108	0xfc	-4
109	0xcf	-49
110	0xfc	-4
111	0xcc	-52
112	0xfd	-3
113	0xcf	-49
114	0x00	0
115	0x12	18
116	0x00	0
117	0xfa	-6
118	0x03	3
119	0x0a	10
120	0xfd	-3
121	0xf1	-15
122	0xfd	-3
123	0x06	6
124	0xe2	-30
125	0x05	5
126	0x01	1
127	0x00	0
128	0xfe	-2
129	0xfa	-6
130	0xe7	-25
131	0x00	0
132	0xfe	-2
133	0x00	0
134	0xea	-22
135	0x0f	15
136	0x01	1
137	0x03	3
138	0xfd	-3
139	0xc8	-56
140	0xd5	-43
141	0xc1	-63
142	0xfe	-2
143	0xd4	-44
144	0x01	1
145	0x95	-107
146	0xff	-1
147	0xf2	-14
148	0x00	0
149	0xd6	-42
150	0xff	-1
151	0xfd	-3
152	0x02	2
153	0xed	-19
154	0xfd	-3
155	0xee	-18
156	0x00	0
157	0x01	1
158	0x01	1
159	0x0f	15
160	0x00	0
161	0x24	36
162	0xf9	-7
163	0x14	20
164	0xfc	-4
165	0xef	-17
166	0xf3	-13
167	0xef	-17
168	0xe9	-23
169	0x04	4
170	0xff	-1
171	0xb4	-76
172	0xd9	-39
173	0xfb	-5
174	0xff	-1
175	0xe5	-27
176	0xfe	-2
177	0x0b	11
178	0x01	1
179	0xe8	-24
180	0xfd	-3
181	0x11	17
182	0x02	2
183	0xfa	-6
184	0xfe	-2
185	0xf5	-11
186	0xff	-1
187	0xf8	-8
188	0xfe	-2
189	0x04	4
190	0xf9	-7
191	0x0e	14
192	0xb0	-80
193	0xbe	-66
194	0x00	0
195	0xf5	-11
196	0x00	0
197	0xfe	-2
198	0x08	8
199	0x00	0
200	0xfc	-4
201	0xfe	-2
202	0x02	2
203	0xf7	-9
204	0x0f	15
205	0xe2	-30
206	0xfd	-3
207	0x15	21
208	0x02	2
209	0xfd	-3
210	0xfe	-2
211	0x0f	15
212	0xfe	-2
213	0x0b	11
214	0xff	-1
215	0x0f	15
216	0xfe	-2
217	0xea	-22
218	0xfe	-2
219	0xe0	-32
220	0xf6	-10
221	0x01	1
222	0xfe	-2
223	0xfe	-2
224	0xd1	-47
225	0xf6	-10
226	0xf3	-13
227	0xef	-17
228	0xfe	-2
229	0x0e	14
230	0xf9	-7
231	0xfb	-5
232	0x16	22
233	0xfd	-3
234	0xfc	-4
235	0xec	-20
236	0xfc	-4
237	0xdb	-37
238	0xfd	-3
239	0x10	16
240	0xfd	-3
241	0x16	22
242	0x02	2
243	0x0f	15
244	0x01	1
245	0x0c	12
246	0xff	-1
247	0x0b	11
248	0x00	0
249	0xc8	-56
250	0xff	-1
251	0x04	4
252	0xf5	-11
253	0xfc	-4
254	0x01	1
255	0x0d	13

tfl.pseudo_qconst1 i1 [10, 960]
0	0x19	25
1	0xfb	-5
2	0xfe	-2
3	0x10	16
4	0x03	3
5	0xff	-1
6	0x15	21
7	0x08	8
8	0x03	3
9	0x07	7
10	0x1a	26
11	0xfd	-3
12	0x0d	13
13	0x0a	10
14	0x0c	12
15	0x01	1
16	0x0e	14
17	0x01	1
18	0x0a	10
19	0xd4	-44
20	0xe8	-24
21	0x02	2
22	0x01	1
23	0xfb	-5
24	0xf9	-7
25	0x0e	14
26	0x25	37
27	0x13	19
28	0x00	0
29	0x12	18
30	0xe7	-25
31	0x01	1
32	0x05	5
33	0x19	25
34	0x01	1
35	0x01	1
36	0x01	1
37	0x08	8
38	0xff	-1
39	0x04	4
40	0x0f	15
41	0xf0	-16
42	0x01	1
43	0x02	2
44	0x00	0
45	0xfc	-4
46	0xff	-1
47	0xfc	-4
48	0x03	3
49	0x0a	10
50	0x03	3
51	0x05	5
52	0x0c	12
53	0x1a	26
54	0xff	-1
55	0x0b	11
56	0x05	5
57	0x0e	14
58	0x07	7
59	0x06	6
60	0x09	9
61	0xf7	-9
62	0x01	1
63	0x01	1
64	0xd8	-40
65	0xff	-1
66	0x05	5
67	0x10	16
68	0x0a	10
69	0xfd	-3
70	0x11	17
71	0x0a	10
72	0xeb	-21
73	0x10	16
74	0x17	23
75	0xfe	-2
76	0x09	9
77	0x16	22
78	0x10	16
79	0x00	0
80	0x15	21
81	0xfd	-3
82	0x0b	11
83	0xba	-70
84	0xfc	-4
85	0xff	-1
86	0xf7	-9
87	0x04	4
88	0x05	5
89	0xeb	-21
90	0x13	19
91	0x25	37
92	0xfe	-2
93	0x0a	10
94	0xfa	-6
95	0x00	0
96	0xfc	-4
97	0x10	16
98	0xff	-1
99	0x10	16
100	0xfd	-3
101	0x0e	14
102	0xfe	-2
103	0xf3	-13
104	0x17	23
105	0xe1	-31
106	0x01	1
107	0x04	4
108	0xf4	-12
109	0x03	3
110	0x00	0
111	0xff	-1
112	0x02	2
113	0xdb	-37
114	0xfc	-4
115	0x07	7
116	0x08	8
117	0x1a	26
118	0xff	-1
119	0x01	1
120	0x04	4
121	0x0a	10
122	0x06	6
123	0x13	19
124	0xf4	-12
125	0x01	1
126	0xf0	-16
127	0x02	2
128	0xd1	-47
129	0x04	4
130	0xd2	-46
131	0x02	2
132	0x0f	15
133	0x02	2
134	0x1a	26
135	0x07	7
136	0xff	-1
137	0x10	16
138	0xf6	-10
139	0x02	2
140	0x13	19
141	0x15	21
142	0x07	7
143	0x05	5
144	0x13	19
145	0x01	1
146	0x06	6
147	0xcc	-52
148	0xe2	-30
149	0x05	5
150	0x02	2
151	0xfe	-2
152	0x0e	14
153	0xfb	-5
154	0x32	50
155	0x1c	28
156	0xfc	-4
157	0x1d	29
158	0x14	20
159	0xfc	-4
160	0x03	3
161	0x12	18
162	0x0b	11
163	0x05	5
164	0x02	2
165	0x10	16
166	0x03	3
167	0xea	-22
168	0x14	20
169	0xfe	-2
170	0xff	-1
171	0xfc	-4
172	0x14	20
173	0xfc	-4
174	0x13	19
175	0xfe	-2
176	0x0f	15
177	0x06	6
178	0xf9	-7
179	0xff	-1
180	0x15	21
181	0x16	22
182	0xfc	-4
183	0xf6	-10
184	0x03	3
185	0x0f	15
186	0x17	23
187	0xfe	-2
188	0x03	3
189	0x18	24
190	0xf2	-14
191	0xfe	-2
192	0xbe	-66
193	0x04	4
194	0xf5	-11
195	0x16	22
196	0x03	3
197	0x03	3
198	0x06	6
199	0x07	7
200	0xf0	-16
201	0x09	9
202	0x03	3
203	0xfe	-2
204	0x10	16
205	0x00	0
206	0x06	6
207	0x02	2
208	0x17	23
209	0x06	6
210	0x09	9
211	0x04	4
212	0xbe	-66
213	0x01	1
214	0xf7	-9
215	0xfd	-3
216	0x02	2
217	0xf4	-12
218	0x29	41
219	0x19	25
220	0xfe	-2
221	0x0c	12
222	0x07	7
223	0xfd	-3
224	0xf7	-9
225	0xe7	-25
226	0xfb	-5
227	0x1d	29
228	0x02	2
229	0x0f	15
230	0x04	4
231	0xd9	-39
232	0x01	1
233	0x0c	12
234	0x00	0
235	0xfe	-2
236	0xfe	-2
237	0xff	-1
238	0x14	20
239	0x07	7
240	0x05	5
241	0x0c	12
242	0x0a	10
243	0x04	4
244	0x11	17
245	0x0f	15
246	0x03	3
247	0xee	-18
248	0x07	7
249	0x07	7
250	0x0e	14
251	0x0f	15
252	0x03	3
253	0x0b	11
254	0xda	-38
255	0x02	2
